saved_model/int_quantized_pruned_MNIST.tflite (tflite, 113816 bytes, 5 tensors)

sequential/dense_2/MatMul i1 [10, 84] scale=0.0071774935 zero_point=0
00000000: 0000 0000 0087 0000 c600 0000 00bd 0000
00000010: 002f 0000 0000 0000 0000 0000 a400 0000
00000020: 00cd d100 8100 00bf 0035 0000 0000 0000
00000030: 0000 0000 0000 0000 3d00 ae00 d5be 0000
00000040: 00cd 9000 0000 002d ce00 0000 0000 0000
00000050: 0000 0000 002d 0000 0000 0000 0000 0000
00000060: bcd5 bc00 0000 002d 00b7 0000 00c7 cd00
00000070: 0000 0000 0000 0000 0000 0000 0000 00d5
00000080: 0000 0000 2b00 0000 0000 0044 0000 00c7
00000090: 0000 00ca 0000 0000 0000 003c 00c4 0000
000000a0: d200 0000 00c4 c000 0000 0000 00ba 0000
000000b0: 00cc 0000 0000 0000 00b9 0000 00cd 0000
000000c0: 0000 0046 0000 0000 00c7 0000 00ce 00c9
000000d0: 0000 0000 0000 0000 0000 0000 0000 0000
000000e0: 002b 35cf 9b00 0000 0000 0032 0000 b700
000000f0: 0000 0000 0000 0000 cec1 0000 0000 0000
0.0 0.0 0.0 0.0 0.0 -0.8684767 0.0 0.0
-0.41629463 0.0 0.0 0.0 0.0 -0.48089206 0.0 0.0
0.0 0.3373422 0.0 0.0 0.0 0.0 0.0 0.0
0.0 0.0 0.0 0.0 -0.6603294 0.0 0.0 0.0
0.0 -0.36605218 -0.3373422 0.0 -0.9115417 0.0 0.0 -0.4665371
0.0 0.38040715 0.0 0.0 0.0 0.0 0.0 0.0
0.0 0.0 0.0 0.0 0.0 0.0 0.0 0.0
0.4378271 0.0 -0.58855444 0.0 -0.30863222 -0.47371456 0.0 0.0
0.0 -0.36605218 -0.80387926 0.0 0.0 0.0 0.0 0.3229872
-0.35887468 0.0 0.0 0.0 0.0 0.0 0.0 0.0
0.0 0.0 0.0 0.0 0.0 0.3229872 0.0 0.0
0.0 0.0 0.0 0.0 0.0 0.0 0.0 0.0
-0.48806956 -0.30863222 -0.48806956 0.0 0.0 0.0 0.0 0.3229872
0.0 -0.523957 0.0 0.0 0.0 -0.40911713 -0.36605218 0.0
0.0 0.0 0.0 0.0 0.0 0.0 0.0 0.0
0.0 0.0 0.0 0.0 0.0 0.0 0.0 -0.30863222
0.0 0.0 0.0 0.0 0.30863222 0.0 0.0 0.0
0.0 0.0 0.0 0.48806956 0.0 0.0 0.0 -0.40911713
0.0 0.0 0.0 -0.38758466 0.0 0.0 0.0 0.0
0.0 0.0 0.0 0.4306496 0.0 -0.4306496 0.0 0.0
-0.3301647 0.0 0.0 0.0 0.0 -0.4306496 -0.4593596 0.0
0.0 0.0 0.0 0.0 0.0 -0.50242454 0.0 0.0
0.0 -0.37322965 0.0 0.0 0.0 0.0 0.0 0.0
0.0 -0.50960207 0.0 0.0 0.0 -0.36605218 0.0 0.0
0.0 0.0 0.0 0.50242454 0.0 0.0 0.0 0.0
0.0 -0.40911713 0.0 0.0 0.0 -0.35887468 0.0 -0.39476216
0.0 0.0 0.0 0.0 0.0 0.0 0.0 0.0
0.0 0.0 0.0 0.0 0.0 0.0 0.0 0.0
0.0 0.30863222 0.38040715 -0.35169718 -0.7249268 0.0 0.0 0.0
0.0 0.0 0.0 0.35887468 0.0 0.0 -0.523957 0.0
0.0 0.0 0.0 0.0 0.0 0.0 0.0 0.0
-0.35887468 -0.45218208 0.0 0.0 0.0 0.0 0.0 0.0

sequential/dense_1/MatMul i1 [84, 120] scale=0.00397509 zero_point=0
00000000: 0000 0000 0000 3200 c500 d2d3 c92e 0000
00000010: 0000 2d00 0000 0000 0000 0000 0000 0000
00000020: 0000 0000 3300 0000 00cf 0000 0000 0000
00000030: 0000 0000 0000 0000 0000 0000 0000 0000
00000040: 0000 0000 0000 0000 0000 0000 0000 003a
00000050: 0000 0000 0000 0000 0000 0000 00d5 0000
00000060: 0000 0000 0000 0000 0000 0000 0000 0000
00000070: cf00 0000 0000 0000 0000 0039 3500 00b3
00000080: 0000 4400 00c8 0000 cd00 0000 0033 2c00
00000090: 0046 4600 3500 4000 0042 0000 3f34 0000
000000a0: 003c 0000 cd00 c500 d200 3600 0000 0000
000000b0: c2c8 00c4 0000 0033 4d00 0041 0000 0000
000000c0: 003b 0000 0000 0000 c600 3100 005e 0000
000000d0: ce54 0000 0062 0000 0000 00cc 0000 c100
000000e0: 0000 00c6 0000 0000 0044 0000 4500 0000
000000f0: 0000 d300 0000 0000 c9cd 0000 0000 0000
0.0 0.0 0.0 0.0 0.0 0.0 0.1987545 0.0
-0.23453031 0.0 -0.18285415 -0.17887905 -0.21862996 0.18285415 0.0 0.0
0.0 0.0 0.17887905 0.0 0.0 0.0 0.0 0.0
0.0 0.0 0.0 0.0 0.0 0.0 0.0 0.0
0.0 0.0 0.0 0.0 0.2027296 0.0 0.0 0.0
0.0 -0.19477941 0.0 0.0 0.0 0.0 0.0 0.0
0.0 0.0 0.0 0.0 0.0 0.0 0.0 0.0
0.0 0.0 0.0 0.0 0.0 0.0 0.0 0.0
0.0 0.0 0.0 0.0 0.0 0.0 0.0 0.0
0.0 0.0 0.0 0.0 0.0 0.0 0.0 0.23055522
0.0 0.0 0.0 0.0 0.0 0.0 0.0 0.0
0.0 0.0 0.0 0.0 0.0 -0.17092888 0.0 0.0
0.0 0.0 0.0 0.0 0.0 0.0 0.0 0.0
0.0 0.0 0.0 0.0 0.0 0.0 0.0 0.0
-0.19477941 0.0 0.0 0.0 0.0 0.0 0.0 0.0
0.0 0.0 0.0 0.22658014 0.21067977 0.0 0.0 -0.30608195
0.0 0.0 0.27030614 0.0 0.0 -0.22260505 0.0 0.0
-0.2027296 0.0 0.0 0.0 0.0 0.2027296 0.17490396 0.0
0.0 0.2782563 0.2782563 0.0 0.21067977 0.0 0.25440577 0.0
0.0 0.26235595 0.0 0.0 0.25043067 0.20670469 0.0 0.0
0.0 0.23850541 0.0 0.0 -0.2027296 0.0 -0.23453031 0.0
-0.18285415 0.0 0.21465486 0.0 0.0 0.0 0.0 0.0
-0.24645558 -0.22260505 0.0 -0.23850541 0.0 0.0 0.0 0.2027296
0.30608195 0.0 0.0 0.25838086 0.0 0.0 0.0 0.0
0.0 0.23453031 0.0 0.0 0.0 0.0 0.0 0.0
-0.23055522 0.0 0.19477941 0.0 0.0 0.37365848 0.0 0.0
-0.1987545 0.33390757 0.0 0.0 0.0 0.38955882 0.0 0.0
0.0 0.0 0.0 -0.20670469 0.0 0.0 -0.25043067 0.0
0.0 0.0 0.0 -0.23055522 0.0 0.0 0.0 0.0
0.0 0.27030614 0.0 0.0 0.2742812 0.0 0.0 0.0
0.0 0.0 -0.17887905 0.0 0.0 0.0 0.0 0.0
-0.21862996 -0.2027296 0.0 0.0 0.0 0.0 0.0 0.0

sequential/dense/MatMul i1 [120, 784] scale=0.0054473346 zero_point=0
00000000: 0000 0000 0000 0000 0000 0000 0000 0000
00000010: 0000 0000 0000 0000 0000 0000 0000 0000
00000020: 0000 0000 0000 0000 0000 0000 0000 0000
00000030: 0000 0000 0000 0000 0000 0000 0000 0000
00000040: 0000 0000 0000 0000 0000 0000 0000 0000
00000050: 0000 0000 0000 0000 0000 0000 0000 0000
00000060: 0000 0000 0000 0000 0000 0000 0000 0000
00000070: 0000 0000 0000 0000 e300 0000 0000 00ea
00000080: 0000 eb00 0000 0000 0000 0000 0000 0000
00000090: 0000 0000 0000 0000 0000 0000 0000 0000
000000a0: 0000 00ea 0000 0000 0000 0000 0000 0000
000000b0: 0000 0000 0000 0000 0000 0000 0000 0000
000000c0: 0000 0000 0000 0000 0000 0000 0000 0000
000000d0: 0000 0000 0000 1600 0000 0000 0000 0000
000000e0: 0000 0000 0000 0000 0000 0000 0000 0000
000000f0: 0000 0000 0000 0000 0000 0000 0000 0000
0.0 0.0 0.0 0.0 0.0 0.0 0.0 0.0
0.0 0.0 0.0 0.0 0.0 0.0 0.0 0.0
0.0 0.0 0.0 0.0 0.0 0.0 0.0 0.0
0.0 0.0 0.0 0.0 0.0 0.0 0.0 0.0
0.0 0.0 0.0 0.0 0.0 0.0 0.0 0.0
0.0 0.0 0.0 0.0 0.0 0.0 0.0 0.0
0.0 0.0 0.0 0.0 0.0 0.0 0.0 0.0
0.0 0.0 0.0 0.0 0.0 0.0 0.0 0.0
0.0 0.0 0.0 0.0 0.0 0.0 0.0 0.0
0.0 0.0 0.0 0.0 0.0 0.0 0.0 0.0
0.0 0.0 0.0 0.0 0.0 0.0 0.0 0.0
0.0 0.0 0.0 0.0 0.0 0.0 0.0 0.0
0.0 0.0 0.0 0.0 0.0 0.0 0.0 0.0
0.0 0.0 0.0 0.0 0.0 0.0 0.0 0.0
0.0 0.0 0.0 0.0 0.0 0.0 0.0 0.0
-0.15797271 0.0 0.0 0.0 0.0 0.0 0.0 -0.11984136
0.0 0.0 -0.114394024 0.0 0.0 0.0 0.0 0.0
0.0 0.0 0.0 0.0 0.0 0.0 0.0 0.0
0.0 0.0 0.0 0.0 0.0 0.0 0.0 0.0
0.0 0.0 0.0 0.0 0.0 0.0 0.0 0.0
0.0 0.0 0.0 -0.11984136 0.0 0.0 0.0 0.0
0.0 0.0 0.0 0.0 0.0 0.0 0.0 0.0
0.0 0.0 0.0 0.0 0.0 0.0 0.0 0.0
0.0 0.0 0.0 0.0 0.0 0.0 0.0 0.0
0.0 0.0 0.0 0.0 0.0 0.0 0.0 0.0
0.0 0.0 0.0 0.0 0.0 0.0 0.0 0.0
0.0 0.0 0.0 0.0 0.0 0.0 0.11984136 0.0
0.0 0.0 0.0 0.0 0.0 0.0 0.0 0.0
0.0 0.0 0.0 0.0 0.0 0.0 0.0 0.0
0.0 0.0 0.0 0.0 0.0 0.0 0.0 0.0
0.0 0.0 0.0 0.0 0.0 0.0 0.0 0.0
0.0 0.0 0.0 0.0 0.0 0.0 0.0 0.0

sequential/conv2d_1/Conv2D i1 [16, 5, 5, 6]
00000000: 0092 0000 0000 00c1 0000 0000 00c4 0000
00000010: 0000 0000 0000 0000 0000 0000 0000 0000
00000020: 0000 003f 0000 0000 0000 0000 0000 0000
00000030: 4100 00c0 0000 0000 b200 005c 007f ad00
00000040: 6300 005f b100 0000 007e 0000 0000 ac57
00000050: b500 4a00 0000 0000 0000 0000 0000 4998
00000060: 0000 b300 41a5 0000 0000 0000 0000 0000
00000070: 0000 0000 4d00 b000 00a4 0000 0000 00bf
00000080: 0000 0000 0000 0000 0000 0000 0000 0000
00000090: 0000 0000 0000 0000 0000 3c00 0000 0000
000000a0: 5100 00c0 0000 0000 3895 0000 0000 0000
000000b0: cf00 3000 0000 0000 0000 3aae 0000 b900
000000c0: 0081 0000 0000 0000 0000 6a00 0000 0000
000000d0: 4cc9 00c2 0000 0000 00cb 0000 0000 0000
000000e0: 0000 7400 00d1 0000 0000 0000 0000 0000
000000f0: 0000 0000 0000 cc00 0051 0000 0000 0000
0 -110 0 0 0 0 0 -63
0 0 0 0 0 -60 0 0
0 0 0 0 0 0 0 0
0 0 0 0 0 0 0 0
0 0 0 63 0 0 0 0
0 0 0 0 0 0 0 0
65 0 0 -64 0 0 0 0
-78 0 0 92 0 127 -83 0
99 0 0 95 -79 0 0 0
0 126 0 0 0 0 -84 87
-75 0 74 0 0 0 0 0
0 0 0 0 0 0 73 -104
0 0 -77 0 65 -91 0 0
0 0 0 0 0 0 0 0
0 0 0 0 77 0 -80 0
0 -92 0 0 0 0 0 -65
0 0 0 0 0 0 0 0
0 0 0 0 0 0 0 0
0 0 0 0 0 0 0 0
0 0 60 0 0 0 0 0
81 0 0 -64 0 0 0 0
56 -107 0 0 0 0 0 0
-49 0 48 0 0 0 0 0
0 0 58 -82 0 0 -71 0
0 -127 0 0 0 0 0 0
0 0 106 0 0 0 0 0
76 -55 0 -62 0 0 0 0
0 -53 0 0 0 0 0 0
0 0 116 0 0 -47 0 0
0 0 0 0 0 0 0 0
0 0 0 0 0 0 -52 0
0 81 0 0 0 0 0 0

sequential/conv2d/Conv2D i1 [6, 5, 5, 1]
00000000: 9200 0000 0000 0000 7b00 0000 787c 0000
00000010: 7f00 0000 0000 0000 007f 0000 0065 0000
00000020: 0000 0000 0000 0000 8c8a 00a5 9700 0096
00000030: 0000 0000 0000 00a4 0000 0000 0000 007f
00000040: 00a1 0000 0000 0000 5d00 0000 0000 ae96
00000050: 0000 6600 0000 0052 7f00 0000 0000 0000
00000060: 0000 0000 0000 7000 0000 0000 0000 0081
00000070: 8200 0000 0000 0000 0059 0000 0000 0000
00000080: 0053 5000 007f 0000 0000 0000 0000 0000
00000090: 00a9 009c 0000
-110 0 0 0 0 0 0 0
123 0 0 0 120 124 0 0
127 0 0 0 0 0 0 0
0 127 0 0 0 101 0 0
0 0 0 0 0 0 0 0
-116 -118 0 -91 -105 0 0 -106
0 0 0 0 0 0 0 -92
0 0 0 0 0 0 0 127
0 -95 0 0 0 0 0 0
93 0 0 0 0 0 -82 -106
0 0 102 0 0 0 0 82
127 0 0 0 0 0 0 0
0 0 0 0 0 0 112 0
0 0 0 0 0 0 0 -127
-126 0 0 0 0 0 0 0
0 89 0 0 0 0 0 0
0 83 80 0 0 127 0 0
0 0 0 0 0 0 0 0
0 -87 0 -100 0 0
